newton/models/lstm.pth (torch, 20691 bytes, 5 tensors)

lstm.weight_ih_l0 f4 [128, 2]
0	0xbd98b5c2	-0.074565426
1	0x3dc81f10	0.0977155
2	0x3c30a875	0.010782351
3	0x3c9da38e	0.019243028
4	0xbe8d764d	-0.2762932
5	0xbd4a155b	-0.049336772
6	0xbf775d37	-0.9662661
7	0xbe0661c0	-0.13123226
8	0xba5fbdc3	-0.00085350516
9	0x3e73f398	0.23823392
10	0xbe1313dd	-0.14363046
11	0x3d12ba01	0.03582192
12	0xbfab0f58	-1.3364058
13	0x3e405dae	0.18785736
14	0x3d168ce1	0.036755446
15	0xbe49abf8	-0.19694507
16	0xbb569d12	-0.003274743
17	0x3e11d86e	0.14242718
18	0xbca7efce	-0.02050009
19	0x3d5a9d8e	0.053372912
20	0xbc05ad74	-0.00815903
21	0xbd898e16	-0.06716554
22	0x3ec3bdc8	0.3823073
23	0x3d92af56	0.07162349
24	0x40012091	2.0176127
25	0xbd45a195	-0.0482498
26	0xbffd0d81	-1.9769746
27	0x3d442ec3	0.047896158
28	0xbd90e509	-0.07074935
29	0x3e0e6451	0.13905455
30	0x3bd5c0f1	0.0065232445
31	0x3cb96769	0.022632318
32	0x3d3e5cf7	0.046475377
33	0x3edf1221	0.4356852
34	0x3fa77fd0	1.308588
35	0xbd379907	-0.044823673
36	0xbf318a72	-0.69351876
37	0xbe3f8e3f	-0.18706606
38	0xbd8f67de	-0.07002233
39	0x3ddaf9c7	0.106921725
40	0xbc84d8d5	-0.016216675
41	0x3d6a9545	0.05727126
42	0xbd0252ef	-0.031817373
43	0x3d1abe67	0.037779238
44	0x3dd7f816	0.105453655
45	0x3d2a62ec	0.041598246
46	0x3e3f9ed7	0.18712936
47	0xbb16b1c7	-0.0022994147
48	0xc06a87d8	-3.6645412
49	0x3e4e4c96	0.20146403
50	0xbf94806c	-1.1601691
51	0x3e35b13a	0.17743388
52	0x407b780b	3.9292018
53	0xbe6fd062	-0.23419335
54	0xbc6fb924	-0.014631543
55	0xbe31d47c	-0.17366213
56	0x3eb2f6dc	0.34953964
57	0xbdd7ad09	-0.10531051
58	0xbd9ab98f	-0.07554924
59	0xbb57c61c	-0.003292448
60	0xbddd8f62	-0.10818364
61	0xbd30951a	-0.043110944
62	0xbcc69bf0	-0.024244279
63	0xbc19c32b	-0.009384911
64	0x3fa00597	1.2501706
65	0xbeb98a9c	-0.36238563
66	0xbd9c3977	-0.07628148
67	0x3a5837b1	0.0008248045
68	0x3ee08715	0.4385306
69	0x3cf59479	0.029978024
70	0xc0704779	-3.7543623
71	0xbe63bb2e	-0.22239372
72	0x3eaf2144	0.34205067
73	0xbc0e9356	-0.00870212
74	0x3ee1650a	0.440224
75	0xbc224a0b	-0.0099053485
76	0xc023db9c	-2.560279
77	0x3f2e4386	0.6807178
78	0xc048a092	-3.1348004
79	0x3eb5e93d	0.3552951
80	0xbd8e4129	-0.06946022
81	0x3f596eed	0.84934884
82	0x3c136161	0.008995385
83	0x3ce9d86f	0.028545586
84	0xbe024070	-0.12719893
85	0x3e2af064	0.16693264
86	0x3f9bd5a4	1.2174573
87	0xbe176e33	-0.14788131
88	0xbdeb3655	-0.114849724
89	0xbdcd0397	-0.1001045
90	0xc04f7f27	-3.2421358
91	0x3e91bb15	0.28463045
92	0x3de779b9	0.11302514
93	0x3e15aad5	0.14615948
94	0x4068788d	3.6323578
95	0xbdc9bc3f	-0.09850358
96	0xbe73d30e	-0.2381098
97	0x3f42e2f4	0.76127553
98	0xbfa49ef7	-1.2861012
99	0x3d79bef1	0.06097311
100	0xc02cf02e	-2.7021594
101	0x3e09d5ba	0.13460436
102	0x3d77703d	0.060409773
103	0xbdb3911e	-0.08767913
104	0xbe8de4d5	-0.27713647
105	0x3da1d8b7	0.07902663
106	0xbd05505a	-0.032547332
107	0x3a52bf8c	0.0008039407
108	0x3e81ba6d	0.25337544
109	0xbe01aa4b	-0.12662618
110	0x408d68c1	4.4190373
111	0xbe7d103c	-0.24713224
112	0x40822847	4.0674167
113	0xbe5978a1	-0.21237423
114	0x4061742b	3.5227153
115	0xbd0d7641	-0.034536604
116	0xc069ca6e	-3.6529803
117	0x3d64337f	0.055713173
118	0x3f3d6b72	0.73992074
119	0xbb12501f	-0.0022325588
120	0xc03e884b	-2.9770687
121	0x3df1d0a3	0.118073724
122	0x3e3bdda8	0.18346274
123	0x3ba7f900	0.0051261187
124	0x40a954a5	5.2915826
125	0x3e8e07af	0.27740237
126	0xbfba487e	-1.4553373
127	0x3e859c64	0.2609588
128	0xbff94f12	-1.9477255
129	0x3d570875	0.0524983
130	0xbccc6276	-0.024949294
131	0x3f1b98c9	0.60780007
132	0xc021ff40	-2.5312042
133	0x3c6c6aea	0.014429787
134	0x3f77eccc	0.968457
135	0x3e6b833f	0.22999285
136	0xbd6722b7	-0.05642959
137	0x3a121a6e	0.00055733963
138	0xbfb0a7cd	-1.3801209
139	0x3d9dfca6	0.077142045
140	0xc0241e62	-2.5643544
141	0x3da2626d	0.079289295
142	0x403f5f09	2.9901755
143	0xbeb7abdc	-0.35873306
144	0x3e9de6bc	0.308401
145	0x3ebdf636	0.37101907
146	0xc0435ca6	-3.0525298
147	0x3deb294f	0.11482488
148	0x3d8d9e6e	0.06914984
149	0x3d8f1763	0.069868825
150	0xbee084b5	-0.43851247
151	0x3e1b1e78	0.15148342
152	0x3fc1b24b	1.5132536
153	0x3e86c69f	0.2632341
154	0xc095b395	-4.6781716
155	0x3e7b1fb0	0.24523807
156	0xbfa1e104	-1.2646794
157	0xbd20e5cc	-0.03928165
158	0x40813d8d	4.0387635
159	0xbe7070eb	-0.23480575
160	0xc00b1272	-2.1730008
161	0xbfbc5576	-1.4713581
162	0xc032825e	-2.789207
163	0x3e0cda47	0.13755141
164	0xbfc12eee	-1.5092447
165	0x3e4b72b1	0.1986797
166	0x40779497	3.8684442
167	0xbe4fd17b	-0.20294754
168	0xbe7ee6fd	-0.24892803
169	0xbd3ab0de	-0.04557883
170	0x40fc0840	7.876007
171	0xbecb847b	-0.39749512
172	0x4081d699	4.057446
173	0xbe7703ad	-0.24122496
174	0xbeacd308	-0.33754754
175	0x3d01e06b	0.031708162
176	0x40556d27	3.3347871
177	0xbe472059	-0.19445933
178	0xc0ac2cfc	-5.3804913
179	0x3e7f18a4	0.24911743
180	0x3b096835	0.0020966653
181	0x3c7d83a4	0.01547328
182	0xc0bf044c	-5.9692745
183	0x3e9d28fb	0.30695328
184	0xbfb41e31	-1.4071714
185	0xbf578175	-0.8418191
186	0x3d84d405	0.06485752
187	0x3d7ff462	0.06248892
188	0x3f43226c	0.762244
189	0xbdaadc54	-0.083428055
190	0xbfa05c6d	-1.2528206
191	0x3e0bc0de	0.13647792
192	0x3e7d9530	0.24763942
193	0xbe4a9793	-0.19784383
194	0xbd18b560	-0.037282348
195	0x3ea6b0d6	0.3255679
196	0xbe0d74f6	-0.13814148
197	0x3d094de6	0.033521555
198	0xbc847d96	-0.016173165
199	0xbdc9d022	-0.09854151
200	0x3aa51931	0.0012596009
201	0x3cd1541e	0.025552806
202	0xbd20a3a5	-0.039218564
203	0x3e0733d1	0.1320336
204	0x3ffeab98	1.9896116
205	0xbe928e63	-0.28624257
206	0x3fdf6c8e	1.7455003
207	0xbe0cb572	-0.13741091
208	0x3fe2c1eb	1.7715429
209	0xbd4b12a7	-0.049578335
210	0x405592cb	3.3370845
211	0xbe137c1f	-0.14402817
212	0x4055516e	3.333095
213	0xbe21206d	-0.15735026
214	0x3d8b00f0	0.06787288
215	0xbd876448	-0.06610924
216	0xbd2b95ce	-0.04189091
217	0x3e6720a1	0.2257104
218	0x3e58bd75	0.21166022
219	0x3b8c143c	0.004274873
220	0xc07a5bff	-3.911865
221	0x3e5d5127	0.21612988
222	0xbcf6749e	-0.030084904
223	0xbc8b77f6	-0.017024975
224	0xbc51fc77	-0.01281654
225	0xbda51f25	-0.08062581
226	0x403b5916	2.9273124
227	0xbe243513	-0.16035871
228	0x3bcb1c52	0.0061984444
229	0xbb64f106	-0.00349337
230	0xc05e3294	-3.471837
231	0x3e46aee5	0.19402654
232	0x409a5077	4.8223224
233	0xbe809946	-0.25116938
234	0x3d43cbc3	0.047801744
235	0xbd16b06c	-0.036789343
236	0x3b2973d6	0.0025856397
237	0xbc06f7e7	-0.008237815
238	0xbc3df98c	-0.011595141
239	0xbd446f54	-0.047957733
240	0x3cc9eabe	0.024648067
241	0xbd0d6d54	-0.03452809
242	0x3f920e75	1.1410662
243	0xbe26ac94	-0.16276771
244	0x3d9be505	0.076120414
245	0x3c99efc0	0.01879108
246	0x3badff18	0.0053099506
247	0x3c44474e	0.011979891
248	0xc08e353a	-4.4439974
249	0x3e6c0433	0.23048477
250	0xc091795e	-4.5460653
251	0x3e50b772	0.20382479
252	0xbe033e09	-0.12816633
253	0x3d854be2	0.06508614
254	0x3e0f709e	0.14007804
255	0x3e24a448	0.16078293

lstm.weight_hh_l0 f4 [128, 32]
0	0xbf18abcc	-0.5963714
1	0x4007e2e0	2.1232224
2	0x3f507dfd	0.8144224
3	0x3f04e468	0.5191102
4	0x4021920e	2.5245395
5	0x401f4b48	2.4889698
6	0xc084d8b7	-4.1514544
7	0xc0101d90	-2.2518044
8	0x3e66f733	0.22555237
9	0x405a3783	3.4096382
10	0xbffa0658	-1.9533186
11	0x4069534c	3.645709
12	0xc06d722b	-3.7100933
13	0xbfcf002c	-1.6171927
14	0x3f751ae0	0.95744133
15	0xbfd8ec7b	-1.6947168
16	0x3eaba50a	0.33524352
17	0x408804ba	4.250577
18	0xbf17b07f	-0.59253687
19	0xbf81e120	-1.0146828
20	0x40812951	4.0362935
21	0xbde4415a	-0.11145277
22	0xbffa7eb9	-1.9569923
23	0xbeaab8ea	-0.33344203
24	0x40ad5074	5.416071
25	0x3ec8e407	0.3923647
26	0xc012ea00	-2.2955322
27	0xbf24c3a5	-0.6436103
28	0x3f8b6df7	1.0892934
29	0x4025d544	2.5911417
30	0x408dbdac	4.4294033
31	0xbf9612ef	-1.1724528
32	0xc0322be8	-2.7839298
33	0xbeb4d365	-0.3531753
34	0xc0241d4f	-2.5642889
35	0x3f8aec99	1.0853454
36	0xbfc160af	-1.510763
37	0x3f99531d	1.1978489
38	0x3db43133	0.087984465
39	0xbf4e90f8	-0.80689955
40	0x41a1ed4d	20.24087
41	0x3f6c0932	0.9220153
42	0x3f9c5cab	1.221578
43	0x3f0f08c6	0.5587276
44	0xbdd56db6	-0.10421316
45	0xbf2424c1	-0.6411858
46	0xbe4108b3	-0.18850975
47	0x402ef494	2.7336779
48	0xbeb210a0	-0.3477831
49	0x3f73d407	0.95245403
50	0x400ff1d0	2.249134
51	0xbf12411a	-0.5713059
52	0x3fafa63c	1.3722606
53	0x3f56819c	0.8379152
54	0x3eca2a43	0.39485368
55	0xbfec43e6	-1.8458221
56	0x40c07d7f	6.0153193
57	0x3e76f0f6	0.24115357
58	0x4030638a	2.7560754
59	0x3faa082e	1.3283746
60	0xbdce90cc	-0.100862116
61	0x40b11913	5.534311
62	0x3feb716c	1.8393989
63	0xc0a4d54e	-5.151038
64	0xbf27a3f5	-0.65484554
65	0xc0c5509e	-6.166091
66	0x3f983798	1.1891966
67	0x3f03953c	0.5139959
68	0xbfd0bb49	-1.6307155
69	0xbc89a081	-0.016800167
70	0xc0493f4f	-3.144489
71	0xbe179e6d	-0.14806528
72	0xbf7b0295	-0.98050815
73	0xc05bab0c	-3.4323149
74	0xc00c4f52	-2.1923413
75	0xc0bf2df7	-5.974361
76	0xbf58f57b	-0.84749573
77	0xbea63b2c	-0.3246702
78	0x4015f862	2.343285
79	0x3f3cb289	0.73709923
80	0x3fa564b5	1.2921358
81	0xbf27b8b2	-0.655162
82	0xbd320c31	-0.043468658
83	0xbf87a939	-1.0598518
84	0x407f168e	3.9857516
85	0xbfcf471b	-1.6193575
86	0x3f07ebd3	0.53094214
87	0x3e908b5e	0.2823133
88	0xbf83988a	-1.0280926
89	0x3f7f23a3	0.9966375
90	0x3efd0f28	0.49425626
91	0x3fbc32cf	1.4703006
92	0x40b40c71	5.6265187
93	0x3ef854af	0.48502108
94	0xc08a8e3c	-4.3298626
95	0x3f64abae	0.8932446
96	0x3d538caa	0.05164782
97	0x3fb348fc	1.4006648
98	0x3f82fcd1	1.0233403
99	0xc0232b26	-2.5495086
100	0xbb7bea43	-0.0038439191
101	0x3cda591d	0.02665382
102	0x400c4ed8	2.1923122
103	0xbe9fe569	-0.31229714
104	0xbf9033b5	-1.126578
105	0xbf9fa0d8	-1.2470961
106	0xbe8f8a8e	-0.28035396
107	0xbf5232c2	-0.821087
108	0xbebab7ac	-0.36468256
109	0xbf247364	-0.6423857
110	0x4040dab8	3.0133495
111	0x3ea98c4f	0.3311486
112	0xbfcd7c89	-1.605363
113	0xc02c2177	-2.6895425
114	0xbf88f47b	-1.069961
115	0xc049d89a	-3.1538453
116	0xbe1e92d6	-0.15485701
117	0x3ef53611	0.47892812
118	0x401a828c	2.414218
119	0xbf961e87	-1.1728066
120	0xc075bf41	-3.8397982
121	0xbeb9d1b4	-0.36292803
122	0xbe184f31	-0.14873959
123	0xbeeaafe6	-0.45837325
124	0x40675034	3.6142702
125	0xc046dfd3	-3.1074111
126	0xbf8f9af5	-1.1219164
127	0xbdb916f4	-0.09037581
128	0xc081f3ad	-4.0609956
129	0xc14e44a6	-12.89176
130	0xc0bcd7ad	-5.9013276
131	0x3fb12566	1.3839538
132	0xc0100fed	-2.250972
133	0x3e750029	0.23925842
134	0xbf430076	-0.7617258
135	0xc06fb3e4	-3.7453547
136	0x405e6caa	3.4753823
137	0x41893924	17.1529
138	0xc16a8bc4	-14.659122
139	0xc01676a6	-2.3509917
140	0xc18099ae	-16.075039
141	0xbc62ee37	-0.01385074
142	0x3e1b894a	0.1518909
143	0x40669bb4	3.6032534
144	0x3fc560f5	1.5420214
145	0x418f4351	17.90787
146	0x3eaccdbc	0.33750713
147	0xc155933d	-13.348447
148	0x4108e460	8.555756
149	0x40856d18	4.169567
150	0x3ea96d17	0.3309104
151	0xbf2072df	-0.6267528
152	0x40d03888	6.506901
153	0x3decf6c0	0.11570501
154	0xbfe3fadf	-1.7810935
155	0xc097ad24	-4.7398853
156	0xc0d4f6e9	-6.6551404
157	0x418e6ffa	17.804676
158	0x412371b3	10.215259
159	0xc197957f	-18.947996
160	0x3f628ef7	0.884994
161	0x3fa7d63b	1.3112253
162	0x40c9446f	6.2896037
163	0xc08f857f	-4.485046
164	0x40a9f4a2	5.3111124
165	0x413a265a	11.634363
166	0xc0bb9fd1	-5.863259
167	0x41101ac7	9.006537
168	0x42334b55	44.823566
169	0x401c95eb	2.4466503
170	0xbf2cc74b	-0.67491597
171	0xc14c5b02	-12.772219
172	0xc0b291ef	-5.580314
173	0x3f029063	0.51001567
174	0xc15a75fc	-13.653805
175	0xc0c49b64	-6.1439686
176	0xc09d4c53	-4.915567
177	0x4040d751	3.0131419
178	0x404539af	3.0816457
179	0x3e8467e4	0.25860512
180	0x3f40990e	0.7523354
181	0xbf98795e	-1.1912038
182	0xc09d31b2	-4.9123163
183	0x40c0f3f9	6.029782
184	0xbfa1ccab	-1.2640585
185	0x3f76e49c	0.9644258
186	0xc1096112	-8.586199
187	0x408bbe3d	4.3669724
188	0x40ca7c3f	6.3276668
189	0x411f1f8b	9.945201
190	0x414e8a1b	12.908717
191	0x40b8747a	5.7642183
192	0xbf1bd589	-0.60872704
193	0xc0aed243	-5.4631667
194	0xbfbec94d	-1.4905182
195	0x40a36f35	5.107325
196	0xc0aa88f0	-5.329216
197	0x401c60a7	2.4433992
198	0x3fdce889	1.7258464
199	0xc02e3e44	-2.7225504
200	0xbfee9c45	-1.864144
201	0x40919070	4.5488815
202	0xbf3de187	-0.7417225
203	0xbf8a70a7	-1.0815629
204	0xc0e116ef	-7.0340495
205	0xbf57a7e9	-0.84240586
206	0xbf220b86	-0.63298833
207	0xc02c4cf8	-2.6921978
208	0x3fac07bc	1.343986
209	0x3ee764dd	0.4519414
210	0x3fdf7641	1.7457963
211	0x40a3ed36	5.1227064
212	0x3fae8159	1.3633224
213	0x3fd2c3d2	1.646601
214	0xbee6aff0	-0.45056105
215	0x3fa0a5d8	1.2550611
216	0xbf734832	-0.95032036
217	0xc00b7db8	-2.1795483
218	0xbfc0025c	-1.500072
219	0xc0a857b6	-5.260707
220	0xbfc35785	-1.5261084
221	0xbe997777	-0.29973957
222	0xc0749e9c	-3.8221807
223	0xc010b010	-2.260746
224	0xc03a416e	-2.9102435
225	0xc012ae44	-2.2918863
226	0x3e593ad1	0.21213843
227	0x3eabeebf	0.33580586
228	0xbfdae07f	-1.7099761
229	0xbef398b8	-0.47577453
230	0xbfb5979b	-1.4186891
231	0x3f6c3eda	0.92283404
232	0xbe360378	-0.1777476
233	0x4065e6c7	3.5922105
234	0xbd97de58	-0.074154556
235	0x401a4708	2.4105854
236	0xc07db308	-3.9640522
237	0xbeb79076	-0.35852402
238	0x3fca5c52	1.5809424
239	0xbe8aacc5	-0.27084938
240	0x401ea5d9	2.4788725
241	0xbf3bb8fa	-0.73329127
242	0x3fe5519e	1.7915533
243	0xbef9a01f	-0.48754975
244	0x40429f7a	3.0409837
245	0xbf64116d	-0.8908909
246	0xc03dcaae	-2.9654956
247	0xbec77ccb	-0.38962397
248	0x3ea461de	0.32105917
249	0x3f742fef	0.9538564
250	0xc0b67514	-5.701792
251	0xc0321ade	-2.7828898
252	0x402db371	2.7140772
253	0xc03604ac	-2.8440351
254	0xbf254fee	-0.6457509
255	0xc0071d2e	-2.111156

lstm.bias_ih_l0 f4 [128]
0	0xc08683ed	-4.203604
1	0xbff19c52	-1.887583
2	0xbf2825dc	-0.6568277
3	0x3f3ff59a	0.74984133
4	0xc115e111	-9.367448
5	0x410c6786	8.775274
6	0x40032491	2.0491068
7	0xbda97a09	-0.082752295
8	0xc1b1a809	-22.207048
9	0xc00f3644	-2.237687
10	0x3f8c3c34	1.0955873
11	0x40f9f2b5	7.8108773
12	0xc0ad3b6b	-5.413503
13	0x3ff7ac91	1.9349538
14	0x4180e6c6	16.112682
15	0x3ed46c18	0.4148872
16	0x3fad461a	1.3537018
17	0x40c62c09	6.1928754
18	0x3fcf02be	1.6172712
19	0x416b3e6b	14.702739
20	0xbe7983ff	-0.24366759
21	0x3eb2740c	0.34854162
22	0x4035e724	2.8422327
23	0x3d961be2	0.07329537
24	0xc07e932a	-3.9777322
25	0xbea93cf5	-0.3305432
26	0xbfe440de	-1.7832296
27	0xbf9bf788	-1.2184916
28	0xbfb2a86b	-1.3957647
29	0x40d61261	6.6897435
30	0x40918fe8	4.5488167
31	0xbfa38a9c	-1.2776675
32	0x3f797b3a	0.97453654
33	0xc0085933	-2.1304443
34	0x3edf05b7	0.43559048
35	0x3f18bbdb	0.59661645
36	0xc06644fb	-3.5979602
37	0xc008a458	-2.1350307
38	0xbf84965b	-1.0358385
39	0xbf8b2eaf	-1.0873622
40	0x3da78004	0.08178714
41	0xc0242899	-2.564978
42	0xc088bd32	-4.273095
43	0xbf95654f	-1.1671542
44	0xc08f0d56	-4.470378
45	0xbd785f11	-0.060637537
46	0xc106e125	-8.429967
47	0x3ec713b2	0.38882214
48	0xbf8ea768	-1.1144838
49	0xc0e34523	-7.1021895
50	0xbf15a265	-0.5845092
51	0xbfe5d0a5	-1.7954298
52	0x3eec282f	0.46124408
53	0x3f1af8ca	0.6053587
54	0xc029d2c6	-2.6534896
55	0x3f5e7299	0.8689361
56	0xc02226ed	-2.5336258
57	0xc05bd615	-3.4349415
58	0xc019624f	-2.3966253
59	0xc044376d	-3.065883
60	0xbffd3e01	-1.9784547
61	0xbfff4b45	-1.9944845
62	0xbd72c570	-0.059270322
63	0xc00a41e9	-2.1602728
64	0x3e585e55	0.21129735
65	0x3e362b86	0.1779004
66	0xbf6901a0	-0.91018105
67	0xc0017f64	-2.0234003
68	0x402fffed	2.7499955
69	0x3e5aec26	0.21379146
70	0xc0ac7190	-5.3888626
71	0xc087f22e	-4.248313
72	0x3e93ef21	0.28893378
73	0xbfd66055	-1.6748148
74	0xc0884421	-4.2583165
75	0xbfbc7c48	-1.4725428
76	0x3fdbc061	1.7168084
77	0xbf23ff48	-0.64061403
78	0xbf6661af	-0.89992803
79	0xc04e1680	-3.2201233
80	0x3ca7ada1	0.020468535
81	0xbdc76a4c	-0.097370714
82	0xbec6e541	-0.38846782
83	0xbfcee03d	-1.6162182
84	0xbf3a5138	-0.7278018
85	0x3ddbec9d	0.1073849
86	0xc0014261	-2.0196764
87	0xc0d06024	-6.511736
88	0xc08c61dc	-4.3869457
89	0xbfc425a5	-1.5323988
90	0x3e0a14b8	0.13484466
91	0x3fba490b	1.4553541
92	0x3e4e0313	0.2011836
93	0x3da4aa18	0.08040255
94	0x40add3c7	5.4321017
95	0x3c0b4f59	0.008502805
96	0xc012c2d0	-2.2931404
97	0x3ea5a8f8	0.32355475
98	0xbdb3cd3e	-0.08779381
99	0xc182f04f	-16.367338
100	0xbfe5701f	-1.7924842
101	0x419e81d3	19.81339
102	0xc02ce825	-2.701669
103	0xc0588680	-3.3832092
104	0xc0f9e4fa	-7.8092012
105	0xbf3a8873	-0.72864455
106	0x40693b5c	3.644248
107	0xc082e325	-4.0902276
108	0x40df9a23	6.9875655
109	0x3f84cf2c	1.0375724
110	0xc044f872	-3.077664
111	0x3f0ac14c	0.542012
112	0xbf3d44f5	-0.73933345
113	0x405e651b	3.474921
114	0xc0b8b896	-5.7725325
115	0xbf9aaff7	-1.208495
116	0xbeabea29	-0.33577088
117	0x3fe67fbd	1.8007733
118	0x40e775f8	7.2331505
119	0x40f6e676	7.7156324
120	0x400adf28	2.1698704
121	0xbe64baf3	-0.2233694
122	0xbf6e6b9e	-0.9313296
123	0xbed9be7c	-0.4252814
124	0x40637a91	3.5543559
125	0xc03c548a	-2.9426599
126	0xc08853ed	-4.260245
127	0x4022040e	2.5314975

lstm.bias_hh_l0 f4 [128]
0	0xc0844f46	-4.134677
1	0xbfdd5f3c	-1.7294688
2	0xbf213750	-0.62975025
3	0x3f6a1181	0.9143296
4	0xc118b636	-9.544485
5	0x410c6ff5	8.777333
6	0x4008f9d0	2.1402473
7	0x3e05cbce	0.13066027
8	0xc1b29839	-22.324327
9	0xc00d1f60	-2.20504
10	0x3f890ad1	1.0706426
11	0x40fafafb	7.8431373
12	0xc0acf79e	-5.4052267
13	0x400198b1	2.0249445
14	0x417ffa03	15.998538
15	0x3ea8497c	0.32868564
16	0x3fa69d40	1.3016739
17	0x40cc917b	6.392759
18	0x3fadc8b8	1.357688
19	0x416d7b45	14.842595
20	0xbe577b63	-0.21043162
21	0x3e8f30e4	0.27966988
22	0x402baaa7	2.6822908
23	0x3e8507aa	0.2598241
24	0xc07d56d0	-3.9584236
25	0xbeba80b1	-0.3642631
26	0xbfdd1ee1	-1.7275048
27	0xbf91729b	-1.13631
28	0xbfb01eb0	-1.3759365
29	0x40d3cdb7	6.6188617
30	0x40903a0c	4.507086
31	0xbfa637d6	-1.298579
32	0x3f64ff29	0.89451844
33	0xc016e564	-2.357751
34	0x3f06398c	0.5243156
35	0x3e9b4dab	0.30332693
36	0xc06fb3b2	-3.7453427
37	0xbfecdc13	-1.8504661
38	0xbf671bc5	-0.9027675
39	0xbf846ae7	-1.0345124
40	0xbb16ba58	-0.0022999253
41	0xc0222d02	-2.533997
42	0xc0841b3d	-4.128325
43	0xbf712dbb	-0.94210404
44	0xc08eaf74	-4.4589176
45	0xbe949616	-0.29020756
46	0xc1056028	-8.335976
47	0x3e5e6d87	0.21721469
48	0xbf84f81c	-1.0388217
49	0xc0ddc96f	-6.930839
50	0xbf440b8d	-0.76580125
51	0xbfdbbb26	-1.7166488
52	0x3f37afac	0.7175243
53	0x3f216160	0.6303921
54	0xc0274cb0	-2.6140556
55	0x3f6b6277	0.9194712
56	0xc02ac2e9	-2.6681464
57	0xc068c7af	-3.6371877
58	0xc010156e	-2.251308
59	0xc0487543	-3.132157
60	0xc00732f9	-2.1124861
61	0xbfdd9885	-1.731217
62	0xbd81951f	-0.06327271
63	0xc008bc42	-2.1364903
64	0x3eae446e	0.34036583
65	0x3e528a49	0.20560564
66	0xbf483b53	-0.7821552
67	0xc00a2819	-2.1586974
68	0x4038e473	2.8889434
69	0x3eda1f7b	0.42602143
70	0xc0ac0568	-5.37566
71	0xc08b6f95	-4.357371
72	0x3d8afe6e	0.0678681
73	0xbff937f9	-1.9470206
74	0xc08a2439	-4.3169217
75	0xbfe03100	-1.7514954
76	0x3fe0d4fe	1.7565
77	0xbf26f6ff	-0.65220636
78	0xbf2a405e	-0.66504467
79	0xc048041f	-3.1252515
80	0xbd861f5a	-0.065489486
81	0x3dda086a	0.10646136
82	0xbe425fdd	-0.18981881
83	0xbfe1da0d	-1.7644669
84	0xbf478c8a	-0.7794882
85	0x3deb677e	0.11494349
86	0xbfe5ac70	-1.7943249
87	0xc0d4ef4e	-6.654212
88	0xc0865eea	-4.199086
89	0xbfc6926d	-1.5513436
90	0x3e6eefdb	0.23333685
91	0x3fa4c85c	1.2873645
92	0x3e442a92	0.19156864
93	0x3e4dd03e	0.2009897
94	0x40a92570	5.28582
95	0xbdb6453b	-0.088999234
96	0xc00034ff	-2.0032346
97	0x3e4644ca	0.19362178
98	0xbe1511b9	-0.14557542
99	0xc1819ca1	-16.201479
100	0xbfdf7990	-1.7458973
101	0x419d70c2	19.680058
102	0xc031aa24	-2.7760096
103	0xc066287b	-3.5962207
104	0xc0f9cdb1	-7.806359
105	0xbf575ed4	-0.8412907
106	0x4068d974	3.6382723
107	0xc08320b0	-4.09774
108	0x40e01853	7.0029693
109	0x3f9b8c21	1.2152139
110	0xc0468b7f	-3.1022642
111	0x3f12c043	0.5732462
112	0xbf6391e8	-0.8889451
113	0x405e4ae0	3.47332
114	0xc0b7672d	-5.7313447
115	0xbfb11fb2	-1.3837798
116	0xbeabb28b	-0.33534655
117	0x4000b002	2.0107427
118	0x40e78324	7.2347584
119	0x40fe2f75	7.943293
120	0x400d9f9e	2.2128673
121	0xbd57deb6	-0.052702628
122	0xbf8757fa	-1.0573723
123	0xbebf27ca	-0.37335044
124	0x4065c3ed	3.5900834
125	0xc0380202	-2.8751225
126	0xc0865db5	-4.198939
127	0x401e4677	2.4730508

fc.weight f4 [1, 32]
0	0xbdbfdb43	-0.09367993
1	0x3e32e159	0.17468776
2	0x3d0fb19e	0.0350815
3	0xbf874a4d	-1.056955
4	0xbe75e3b6	-0.24012646
5	0xbde1baca	-0.11021955
6	0xbbf6bfd5	-0.0075301924
7	0x3cafcda5	0.021460364
8	0xbf096246	-0.5366558
9	0xbd8ebcc6	-0.069695994
10	0xbd60e46d	-0.054905344
11	0xbd038c8c	-0.032116458
12	0xbd10678c	-0.035255
13	0xbd6e8eea	-0.058241762
14	0x3ca7c497	0.020479484
15	0x3ddf238d	0.10895453
16	0xbdc29059	-0.095001884
17	0xbe06d936	-0.13168797
18	0x3de367f4	0.11103812
19	0x3def0a2d	0.11671863
20	0xbdeecaea	-0.116597965
21	0xbd8e4449	-0.06946618
22	0xbd056ea2	-0.03257621
23	0xbe6cdc8e	-0.2313101
24	0x3de852b7	0.113439016
25	0xbb64c1d2	-0.0034905565
26	0x3d8c1d57	0.06841534
27	0xbe1dddaa	-0.1541659
28	0x3c9f81a4	0.019470997
29	0xbc6ec013	-0.014572161
30	0xbd2fc7ba	-0.042915083
31	0xbe1b9fe3	-0.1519771
